…
        "colab": {
          "base_uri": "https://localhost:8080/",
          "height": 527
        }
      },
      "source": [
        "model.summary()"
      ],
      "execution_count": null,
      "outputs": [
        {
          "output_type": "stream",
          "text": [
            "Model: \"sequential_2\"\n",
            "_________________________________________________________________\n",
            "Layer (type)                 Output Shape              Param #   \n",
            "=================================================================\n",
            "conv2d_5 (Conv2D)            (None, 148, 148, 32)      896       \n",
            "_________________________________________________________________\n",
            "max_pooling2d_5 (MaxPooling2 (None, 74, 74, 32)        0         \n",
            "_________________________________________________________________\n",
            "conv2d_6 (Conv2D)            (None, 72, 72, 64)        18496     \n",
            "_________________________________________________________________\n",
            "max_pooling2d_6 (MaxPooling2 (None, 36, 36, 64)        0         \n",
            "_________________________________________________________________\n",
            "conv2d_7 (Conv2D)            (None, 34, 34, 128)       73856     \n",
            "_________________________________________________________________\n",
            "max_pooling2d_7 (MaxPooling2 (None, 17, 17, 128)       0         \n",
            "_________________________________________________________________\n",
            "conv2d_8 (Conv2D)            (None, 15, 15, 128)       147584    \n",
            "_________________________________________________________________\n",
            "max_pooling2d_8 (MaxPooling2 (None, 7, 7, 128)         0         \n",
            "_________________________________________________________________\n",
            "flatten_2 (Flatten)          (None, 6272)              0         \n",
            "_________________________________________________________________\n",
            "dense_3 (Dense)              (None, 512)               3211776   \n",
            "_________________________________________________________________\n",
            "dense_4 (Dense)              (None, 1)                 513       \n",
            "=================================================================\n",
            "Total params: 3,453,121\n",
            "Trainable params: 3,453,121\n",
            "Non-trainable params: 0\n",
            "_________________________________________________________________\n"
          ],
          "name": "stdout"
        }
      ]
    },
    {
      "cell_type": "markdown",
…
        "colab": {
          "base_uri": "https://localhost:8080/",
          "height": 561
        }
      },
      "source": [
        "model.summary()"
      ],
      "execution_count": null,
      "outputs": [
        {
          "output_type": "stream",
          "text": [
            "Model: \"sequential_2\"\n",
            "_________________________________________________________________\n",
            "Layer (type)                 Output Shape              Param #   \n",
            "=================================================================\n",
            "conv2d_5 (Conv2D)            (None, 148, 148, 32)      896       \n",
            "_________________________________________________________________\n",
            "max_pooling2d_5 (MaxPooling2 (None, 74, 74, 32)        0         \n",
            "_________________________________________________________________\n",
            "conv2d_6 (Conv2D)            (None, 72, 72, 64)        18496     \n",
            "_________________________________________________________________\n",
            "max_pooling2d_6 (MaxPooling2 (None, 36, 36, 64)        0         \n",
            "_________________________________________________________________\n",
            "conv2d_7 (Conv2D)            (None, 34, 34, 128)       73856     \n",
            "_________________________________________________________________\n",
            "max_pooling2d_7 (MaxPooling2 (None, 17, 17, 128)       0         \n",
            "_________________________________________________________________\n",
            "conv2d_8 (Conv2D)            (None, 15, 15, 128)       147584    \n",
            "_________________________________________________________________\n",
            "max_pooling2d_8 (MaxPooling2 (None, 7, 7, 128)         0         \n",
            "_________________________________________________________________\n",
            "flatten_2 (Flatten)          (None, 6272)              0         \n",
            "_________________________________________________________________\n",
            "dropout_2 (Dropout)          (None, 6272)              0         \n",
            "_________________________________________________________________\n",
            "dense_3 (Dense)              (None, 512)               3211776   \n",
            "_________________________________________________________________\n",
            "dense_4 (Dense)              (None, 1)                 513       \n",
            "=================================================================\n",
            "Total params: 3,453,121\n",
            "Trainable params: 3,453,121\n",
            "Non-trainable params: 0\n",
            "_________________________________________________________________\n"
          ],
          "name": "stdout"
        }
      ]
    },
    {
      "cell_type": "code",
…
      "metadata": {
        "id": "zsw1Bqm5hYha",
        "outputId": "d8ff0afb-f7ad-499f-8e9c-9e3044cfe4ac"
      },
      "source": [
        "model.summary()"
      ],
      "execution_count": null,
      "outputs": [
        {
          "output_type": "stream",
          "text": [
            "Model: \"sequential\"\n",
            "_________________________________________________________________\n",
            "Layer (type)                 Output Shape              Param #   \n",
            "=================================================================\n",
            "conv2d (Conv2D)              (None, 148, 148, 32)      896       \n",
            "_________________________________________________________________\n",
            "max_pooling2d (MaxPooling2D) (None, 74, 74, 32)        0         \n",
            "_________________________________________________________________\n",
            "conv2d_1 (Conv2D)            (None, 72, 72, 64)        18496     \n",
            "_________________________________________________________________\n",
            "max_pooling2d_1 (MaxPooling2 (None, 36, 36, 64)        0         \n",
            "_________________________________________________________________\n",
            "conv2d_2 (Conv2D)            (None, 34, 34, 128)       73856     \n",
            "_________________________________________________________________\n",
            "max_pooling2d_2 (MaxPooling2 (None, 17, 17, 128)       0         \n",
            "_________________________________________________________________\n",
            "conv2d_3 (Conv2D)            (None, 15, 15, 128)       147584    \n",
            "_________________________________________________________________\n",
            "max_pooling2d_3 (MaxPooling2 (None, 7, 7, 128)         0         \n",
            "_________________________________________________________________\n",
            "flatten (Flatten)            (None, 6272)              0         \n",
            "_________________________________________________________________\n",
            "dense (Dense)                (None, 512)               3211776   \n",
            "_________________________________________________________________\n",
            "dense_1 (Dense)              (None, 4)                 2052      \n",
            "=================================================================\n",
            "Total params: 3,454,660\n",
            "Trainable params: 3,454,660\n",
            "Non-trainable params: 0\n",
            "_________________________________________________________________\n"
          ],
          "name": "stdout"
        }
      ]
    },
    {
      "cell_type": "markdown",
…
          "base_uri": "https://localhost:8080/",
          "height": 935
        }
      },
      "source": [
        "# summarize the model\n",
        "vgg_model.summary()"
      ],
      "execution_count": null,
      "outputs": [
        {
          "output_type": "stream",
          "text": [
            "Model: \"vgg16\"\n",
            "_________________________________________________________________\n",
            "Layer (type)                 Output Shape              Param #   \n",
            "=================================================================\n",
            "input_1 (InputLayer)         (None, 224, 224, 3)       0         \n",
            "_________________________________________________________________\n",
            "block1_conv1 (Conv2D)        (None, 224, 224, 64)      1792      \n",
            "_________________________________________________________________\n",
            "block1_conv2 (Conv2D)        (None, 224, 224, 64)      36928     \n",
            "_________________________________________________________________\n",
            "block1_pool (MaxPooling2D)   (None, 112, 112, 64)      0         \n",
            "_________________________________________________________________\n",
            "block2_conv1 (Conv2D)        (None, 112, 112, 128)     73856     \n",
            "_________________________________________________________________\n",
            "block2_conv2 (Conv2D)        (None, 112, 112, 128)     147584    \n",
            "_________________________________________________________________\n",
            "block2_pool (MaxPooling2D)   (None, 56, 56, 128)       0         \n",
            "_________________________________________________________________\n",
            "block3_conv1 (Conv2D)        (None, 56, 56, 256)       295168    \n",
            "_________________________________________________________________\n",
            "block3_conv2 (Conv2D)        (None, 56, 56, 256)       590080    \n",
            "_________________________________________________________________\n",
            "block3_conv3 (Conv2D)        (None, 56, 56, 256)       590080    \n",
            "_________________________________________________________________\n",
            "block3_pool (MaxPooling2D)   (None, 28, 28, 256)       0         \n",
            "_________________________________________________________________\n",
            "block4_conv1 (Conv2D)        (None, 28, 28, 512)       1180160   \n",
            "_________________________________________________________________\n",
            "block4_conv2 (Conv2D)        (None, 28, 28, 512)       2359808   \n",
            "_________________________________________________________________\n",
            "block4_conv3 (Conv2D)        (None, 28, 28, 512)       2359808   \n",
            "_________________________________________________________________\n",
            "block4_pool (MaxPooling2D)   (None, 14, 14, 512)       0         \n",
            "_________________________________________________________________\n",
            "block5_conv1 (Conv2D)        (None, 14, 14, 512)       2359808   \n",
            "_________________________________________________________________\n",
            "block5_conv2 (Conv2D)        (None, 14, 14, 512)       2359808   \n",
            "_________________________________________________________________\n",
            "block5_conv3 (Conv2D)        (None, 14, 14, 512)       2359808   \n",
            "_________________________________________________________________\n",
            "block5_pool (MaxPooling2D)   (None, 7, 7, 512)         0         \n",
            "_________________________________________________________________\n",
            "flatten (Flatten)            (None, 25088)             0         \n",
            "_________________________________________________________________\n",
            "fc1 (Dense)                  (None, 4096)              102764544 \n",
            "_________________________________________________________________\n",
            "fc2 (Dense)                  (None, 4096)              16781312  \n",
            "_________________________________________________________________\n",
            "predictions (Dense)          (None, 1000)              4097000   \n",
            "=================================================================\n",
            "Total params: 138,357,544\n",
            "Trainable params: 138,357,544\n",
            "Non-trainable params: 0\n",
            "_________________________________________________________________\n"
          ],
          "name": "stdout"
        }
      ]
    },
    {
      "cell_type": "code",
…
        "colab": {
          "base_uri": "https://localhost:8080/",
          "height": 1000
        }
      },
      "source": [
        "wvgg_model.summary()"
      ],
      "execution_count": null,
      "outputs": [
        {
          "output_type": "stream",
          "text": [
            "Model: \"model_1\"\n",
            "_________________________________________________________________\n",
            "Layer (type)                 Output Shape              Param #   \n",
            "=================================================================\n",
            "input_1 (InputLayer)         (None, 224, 224, 3)       0         \n",
            "_________________________________________________________________\n",
            "block1_conv1 (Conv2D)        (None, 224, 224, 64)      1792      \n",
            "_________________________________________________________________\n",
            "block1_conv2 (Conv2D)        (None, 224, 224, 64)      36928     \n",
            "_________________________________________________________________\n",
            "block1_pool (MaxPooling2D)   (None, 112, 112, 64)      0         \n",
            "_________________________________________________________________\n",
            "block2_conv1 (Conv2D)        (None, 112, 112, 128)     73856     \n",
            "_________________________________________________________________\n",
            "block2_conv2 (Conv2D)        (None, 112, 112, 128)     147584    \n",
            "_________________________________________________________________\n",
            "block2_pool (MaxPooling2D)   (None, 56, 56, 128)       0         \n",
            "_________________________________________________________________\n",
            "block3_conv1 (Conv2D)        (None, 56, 56, 256)       295168    \n",
            "_________________________________________________________________\n",
            "block3_conv2 (Conv2D)        (None, 56, 56, 256)       590080    \n",
            "_________________________________________________________________\n",
            "block3_conv3 (Conv2D)        (None, 56, 56, 256)       590080    \n",
            "_________________________________________________________________\n",
            "block3_pool (MaxPooling2D)   (None, 28, 28, 256)       0         \n",
            "_________________________________________________________________\n",
            "block4_conv1 (Conv2D)        (None, 28, 28, 512)       1180160   \n",
            "_________________________________________________________________\n",
            "block4_conv2 (Conv2D)        (None, 28, 28, 512)       2359808   \n",
            "_________________________________________________________________\n",
            "block4_conv3 (Conv2D)        (None, 28, 28, 512)       2359808   \n",
            "_________________________________________________________________\n",
            "block4_pool (MaxPooling2D)   (None, 14, 14, 512)       0         \n",
            "_________________________________________________________________\n",
            "block5_conv1 (Conv2D)        (None, 14, 14, 512)       2359808   \n",
            "_________________________________________________________________\n",
            "block5_conv2 (Conv2D)        (None, 14, 14, 512)       2359808   \n",
            "_________________________________________________________________\n",
            "block5_conv3 (Conv2D)        (None, 14, 14, 512)       2359808   \n",
            "_________________________________________________________________\n",
            "block5_pool (MaxPooling2D)   (None, 7, 7, 512)         0         \n",
            "_________________________________________________________________\n",
            "flatten (Flatten)            (None, 25088)             0         \n",
            "_________________________________________________________________\n",
            "fc1 (Dense)                  (None, 4096)              102764544 \n",
            "_________________________________________________________________\n",
            "fc2 (Dense)                  (None, 4096)              16781312  \n",
            "_________________________________________________________________\n",
            "predictions (Dense)          (None, 1000)              4097000   \n",
            "_________________________________________________________________\n",
            "dense_1 (Dense)              (None, 512)               512512    \n",
            "_________________________________________________________________\n",
            "dense_2 (Dense)              (None, 1)                 513       \n",
            "=================================================================\n",
            "Total params: 138,870,569\n",
            "Trainable params: 138,870,569\n",
            "Non-trainable params: 0\n",
            "_________________________________________________________________\n"
          ],
          "name": "stdout"
        }
      ]
    },
    {
      "cell_type": "code",
…
